checkpoint3L.pth (torch_old, 28417 bytes, 6 tensors)

fc1.weight f4 [64, 37]
000000 3f 84 7d be 9b 16 01 3e ae dd 95 3c 3b e0 2d be
       -0.24757479 0.1260628 0.018294182 -0.16980068
000010 ef 8c 72 3e 02 45 5d be b8 a8 48 3c 1f a1 86 3e
       0.23686574 -0.21608356 0.012247257 0.262948
000020 c0 25 0b 3e 29 e5 57 bd ae 38 8d bd bc 77 8e bd
       0.13588619 -0.05270878 -0.068955764 -0.06956431
000030 d3 32 51 3c 77 ea 82 3c cb 21 77 3e 17 ce 26 bd
       0.012768465 0.015980942 0.24133985 -0.040723886
000040 04 d6 b8 bd be 82 25 bc 35 95 75 bd a0 1b df bd
       -0.09025195 -0.010101972 -0.059956748 -0.10893941
000050 90 e8 ca ba d1 ee 45 3d 48 5e f8 bc b8 5d 83 3e
       -0.0015480686 0.048323456 -0.030318394 0.2565744
000060 5d 45 19 3f ac 6b d2 bd d5 5e c5 bd 65 fd f5 3d
       0.59871465 -0.10274443 -0.096372284 0.12011222
000070 92 be 7d 3c 7d f6 9e 3d d3 d6 3f be 46 21 82 be
       0.01548733 0.07761858 -0.18734293 -0.2541601
000080 a0 91 bb 3d 64 d7 74 3d e1 dd 13 3e 9e bb 98 39
       0.09158635 0.059775725 0.14440109 0.00029131485
000090 f5 ea d7 bb 1a ca 88 3b 8e 31 a6 3d a6 00 0c bc
       -0.0065892884 0.004174483 0.081149206 -0.0085450765
0000a0 73 d2 9a bd 32 57 bc be 19 4d ed bd c2 78 01 3e
       -0.07559671 -0.36785275 -0.11586971 0.12643722
0000b0 60 09 90 3d 67 25 5f bd 2d ca fb 3d d5 10 35 be
       0.07033038 -0.05447903 0.12294421 -0.17682202
0000c0 77 ea da 3c 4a 17 02 3e 6d a0 91 bc 69 43 57 3d
       0.02672313 0.12704197 -0.017776692 0.05255452
0000d0 2c 77 4c be a1 9e 37 3d 3a 23 c6 3d a2 b6 75 3b
       -0.19967335 0.044829015 0.09674688 0.003749289
0000e0 44 78 6f be 3c f9 30 bd 7c 44 ab bd 53 a6 c4 3d
       -0.23385721 -0.04320644 -0.08362672 0.09602036
0000f0 6c b3 b1 be 0d f1 d6 3c 54 0a 28 be b2 37 27 bc
       -0.347072 0.026237989 -0.1641019 -0.01020615
000100 96 f3 6d be 8b 22 29 be 15 37 88 bd f3 9d 99 be
       -0.23237452 -0.16517083 -0.06651131 -0.30003318
000110 37 fc 71 3e 8c 00 85 3e c3 71 44 be be 3d 67 be
       0.23631369 0.2597698 -0.19184022 -0.22582147
000120 cb fc 8b be a3 b5 8b 3c 5f 13 77 bd f3 bd 43 3d
       -0.27341303 0.017054385 -0.060321208 0.04778857
000130 8a dd 97 bd bf d6 80 be 83 66 e1 3d f2 a3 03 be
       -0.07415302 -0.25163838 0.11005881 -0.12855509
000140 7e b9 aa 3d 9d c9 3c 3e 53 ff ab be ca 68 bc 3d
       0.08336161 0.18436284 -0.33593234 0.091996744
000150 9a cd 45 be 42 64 42 3e 0b 2a b5 3d 9c f7 b2 3d
       -0.19316712 0.18983558 0.0884591 0.08738634
000160 bf 1b 94 bd 18 33 45 3e 90 e0 8d 3d e9 36 7d bd
       -0.07231855 0.19257772 0.069275975 -0.061819945
000170 aa 4c d5 be f8 c5 c4 be 0f 1e 20 3d 2a 32 d3 3c
       -0.41660053 -0.38432288 0.039091166 0.025780756
000180 a4 ef d8 bc 9e 25 82 3d e0 59 bf bd d7 5b ca 3d
       -0.026481457 0.06354831 -0.09343314 0.09880798
000190 77 6b 0c 3e 1e 0b 10 bf 3b d4 25 be 48 e6 c2 be
       0.1371287 -0.56266963 -0.16194241 -0.38066316
0001a0 0e 95 cb ba 14 a9 b1 bc f5 84 1b bc 2a 69 37 be
       -0.0015532093 -0.021687068 -0.009492149 -0.1791121
0001b0 e0 16 a4 3e ac ea 6d 3d 9d fc 23 bc 92 be 66 3c
       0.32048702 0.05808513 -0.010008958 0.014083521
0001c0 08 9c fd bd 61 29 8c bb db 8e 6b bb 25 50 46 3e
       -0.12383276 -0.0042773937 -0.0035943303 0.1936651
0001d0 84 cd 38 3d f4 91 85 3e fb 4c e5 3d e3 da 86 3d
       0.04511787 0.26087916 0.111963235 0.06584718
0001e0 38 94 ae 3e 05 97 78 3e ca 2c 89 3d 58 6a b5 39
       0.34097457 0.2427636 0.06697996 0.00034602243
0001f0 a8 ec db 3c eb 3f 21 be f8 85 26 3e 20 c4 82 3d
       0.026846245 -0.15747039 0.16262043 0.06385064
000200 45 e9 d9 ba 52 60 bb 3d 52 37 14 3e 24 71 b5 3e
       -0.0016625306 0.09149231 0.14474228 0.35437882
000210 4c d6 7d bd d6 59 2a 3d a2 12 13 be 54 9d 04 be
       -0.061971948 0.04158958 -0.14362577 -0.12950641
000220 29 a9 6e bc 35 a2 11 bd ca be 14 3e d4 c9 b2 3d
       -0.014566698 -0.035555083 0.14525905 0.08729902
000230 2e 4a 94 3e f5 02 66 3e 21 95 9b bd e8 1e 11 3d
       0.28962845 0.22462066 -0.075968035 0.035429865
000240 a9 d7 11 bc 3c 5e 82 be b8 91 0d bd de f4 5f 3c
       -0.008901515 -0.2546252 -0.034562796 0.013669221
000250 96 a4 39 be f5 55 75 3c 95 bc 1f bd a6 b0 bc bd
       -0.18129191 0.014974107 -0.038998205 -0.092133805
000260 c3 26 c3 3c a3 eb a1 3e 13 9e 6f 3e 16 a3 dd be
       0.023822194 0.3162509 0.23400144 -0.43288487
000270 f3 f8 16 bf 3c b6 59 bf 73 55 cb bd 5c 1a 77 3d
       -0.58973616 -0.8504369 -0.099284075 0.060327873
000280 1d 8f e3 3d 78 04 81 3d 70 db 3d be 83 8f 82 bd
       0.11111281 0.062996805 -0.1854074 -0.06375029
000290 f5 f6 21 3d fc 4a 51 bc 40 0c 42 3e 27 d3 49 3e
       0.039542157 -0.012774225 0.18949986 0.19709454
0002a0 98 dd c7 3d f8 ea 32 3e 5d 93 1a 3d 57 ff e7 3d
       0.097590625 0.17472446 0.037738193 0.11327999
0002b0 9e c0 03 3e bc 5e 0b bd 87 94 10 be c3 8e b3 3d
       0.12866446 -0.034025893 -0.14119159 0.08767464
0002c0 a2 92 11 3e 1c 23 62 3e 06 80 89 3d b8 0e f7 bd
       0.14216092 0.22083706 0.06713872 -0.12063354
0002d0 c8 e9 ca bd 85 41 3e bb 91 c9 5c 3d bb 10 67 3d
       -0.099078715 -0.0029030752 0.053903166 0.05641244
0002e0 be ca d7 3c 4a da b4 3d 32 cf 62 3d 62 18 c3 3d
       0.026341792 0.08830698 0.055373378 0.09526135
0002f0 1e f0 fc 3c 80 8b a5 bd ab c6 08 3e c1 af ef 3d
       0.030876216 -0.08083248 0.13357036 0.11703444
000300 b7 4e 09 3e b5 00 de 3d 29 80 30 3e 1a f2 9d ba
       0.13408934 0.108399786 0.17236389 -0.0012050301
000310 38 7d 48 3b 7d 75 c7 3d 71 92 3d 3e 69 64 1d 3e
       0.0030592214 0.09739206 0.18512894 0.15370335
000320 44 a6 3a bc 79 8c 4c 3d 6e 2b 8d bb a5 17 a1 bc
       -0.01139218 0.049938653 -0.0043081557 -0.019664595
000330 8e 4a 20 be d5 16 4f 3d 02 73 47 3e db da e8 3d
       -0.1565344 0.050558884 0.19477466 0.11369868
000340 45 36 7a 3e 7b 6a df 3d ae 79 00 3e 68 d0 06 3c
       0.24434765 0.109089814 0.12546417 0.008228399
000350 3a 7b d1 bc 4b 58 76 bd ae 1b 8a be b5 dc 84 3e
       -0.025571454 -0.060142796 -0.26974243 0.25949636
000360 b3 3e a9 be ab 9e 78 be 15 17 87 be 70 7f ae bf
       -0.33055648 -0.24279277 -0.26384798 -1.3632641
000370 82 4a 80 3c a5 4a 6f bb 31 64 d6 bc 6a 5e 20 be
       0.015660528 -0.0036512997 -0.026170822 -0.15661016
000380 38 39 6f bb 04 93 5d bd 62 28 82 3e 36 d6 a3 3b
       -0.003650261 -0.054095283 0.25421435 0.004999901
000390 25 42 e1 bd a2 10 77 3d ed 97 b1 3e fb 39 40 3f
       -0.10998944 0.060318597 0.34686223 0.7508847
0003a0 4b a2 96 bd 81 df d2 bd e3 cd 17 be ba 7e 1e bd
       -0.07355174 -0.10296536 -0.14824633 -0.038695075
0003b0 f8 81 20 3e 25 c0 b1 3d 41 44 f1 3c d2 e4 fa 3d
       0.15674579 0.08679227 0.029451491 0.12250675
0003c0 4f 78 35 3d f8 00 2b 3e c2 2f 5f bc 30 e7 a2 3a
       0.04430419 0.16699588 -0.013622226 0.0012428518
0003d0 2c 50 18 3d 33 68 02 3b 3d a6 b3 3d d8 c5 29 3d
       0.037185833 0.0019898533 0.08771942 0.041448444
0003e0 2b 80 27 bd b2 43 b2 bb df 1c 65 3c 0f 52 20 3e
       -0.040893715 -0.005440199 0.013983934 0.15656303
0003f0 06 e3 14 be 8c b3 ed bd b6 e9 97 bc 6e b3 8c bc
       -0.14539728 -0.116065115 -0.01854406 -0.017175402

fc1.bias f4 [64]
000000 5e a5 e6 3c 41 f8 67 bc 7b d2 02 3e 9d 5c 50 3e
       0.028155025 -0.014158309 0.12775604 0.20347829
000010 01 81 f3 3d 16 3b 1b 3d e6 f7 d3 bd 90 71 4b 3d
       0.1188984 0.037898146 -0.10350017 0.04966885
000020 5b 27 2d 3e 11 ee dd bd 8c 0c d6 3d 2a 04 f9 bd
       0.16909544 -0.10836423 0.10451612 -0.12158997
000030 6c 63 e5 3c 87 f5 d3 bd db 4a 89 3c a6 e4 92 bc
       0.02800151 -0.10349565 0.016759327 -0.017931294
000040 b9 e9 a1 3d 77 06 c1 bd 25 4a 1b 3d a4 3c 06 3e
       0.07905907 -0.09425061 0.037912507 0.1310907
000050 6d d0 b8 3c a9 50 5a 3d cf 5c a9 bc 0d d3 cc 3d
       0.022560323 0.05329958 -0.020674137 0.10001192
000060 94 f8 5d bd 44 77 38 be 5a 16 19 bd 4b 3d 4b 3e
       -0.05419214 -0.18014246 -0.03737483 0.198476
000070 d9 e3 c1 3d df 2e 56 bd 7b 30 50 bd fb 57 30 3e
       0.094672866 -0.052290794 -0.050827485 0.17221062
000080 97 0d 12 3d 42 9d 80 3d 23 75 89 3e 73 bb 4e be
       0.03565749 0.062799945 0.2684718 -0.20188694
000090 71 e2 1c 3e 0f 7f 02 be 1d 87 fd 3d 43 4b 2e 3e
       0.15320756 -0.12743782 0.123792864 0.17020898
0000a0 5b 8e 4f bd 63 83 34 3e f5 05 33 3e 1f 1b 18 3e
       -0.05067287 0.17628245 0.17482741 0.14854096
0000b0 a9 be 9d 3d 3c fc 3a 3e 46 61 05 3c 8f cd 89 bd
       0.07702381 0.18260282 0.008140868 -0.0672866
0000c0 6d 34 fa bb 4c da 51 3e 96 ec 19 3e 77 1c 24 3d
       -0.007635644 0.2049343 0.15031657 0.04006621
0000d0 ce 72 4c bd 93 5d b1 3d 59 80 b2 bd c1 b5 85 3d
       -0.049914174 0.08660426 -0.087158866 0.065288074
0000e0 7c 7c e5 3d 12 16 2f 3e 55 6c ae 3d 10 10 31 be
       0.11205384 0.17098263 0.085167564 -0.17291284
0000f0 b7 c0 44 3c 58 1f c6 bd a9 4a e8 3d d9 da bc 3d
       0.012008837 -0.09673947 0.11342365 0.092214294

fc2.weight f4 [64, 64]
000000 3d 58 27 bd 6a 38 15 3e 5f 1b 1f be 7d e4 3d 3d
       -0.040855635 0.14572302 -0.15537785 0.04636048
000010 7a f1 1b be f7 6f 06 bd bb 0d 10 3d f0 12 f8 bd
       -0.15228835 -0.03282162 0.035169344 -0.12112987
000020 b5 ad 16 bd 76 27 57 be e3 5d 2b 3e 79 6d 8c 3d
       -0.036786754 -0.21011147 0.16735034 0.06856818
000030 01 d3 7f be 38 d5 a7 bd 13 c2 01 3e a8 53 0d 3e
       -0.24982835 -0.08194965 0.1267169 0.13801444
000040 c6 ad a5 bd 67 f4 2f be 50 c2 8c 3d 6d e8 a2 3d
       -0.08089785 -0.17183076 0.06873 0.07954488
000050 5e e1 94 be 76 ed bf bd 35 9f 6e 3d f8 a7 00 3d
       -0.29078192 -0.09371464 0.0582573 0.031410187
000060 02 cd 00 be 8c 03 44 be b4 f7 a0 3d 81 34 53 3d
       -0.12578204 -0.19141978 0.078597456 0.051563744
000070 56 21 52 bc 8e 6a 8c 3d b1 61 b9 be 46 f8 5b be
       -0.012825331 0.06856261 -0.36207345 -0.21481428
000080 f0 95 f7 be 7b ea b8 bd b0 3f e1 3c 81 18 8d be
       -0.4835658 -0.090290986 0.027496189 -0.27557757
000090 5b 39 1b bd 74 e2 2a 3c b1 a0 18 3c 9f da 8a bc
       -0.037896495 0.010429967 0.009315656 -0.01694995
0000a0 4f 94 6e bd 3b 60 0f 3d a1 b1 c0 3d 43 a8 f2 be
       -0.058246907 0.035003882 0.0940888 -0.47393999
0000b0 86 ea d0 bd 85 73 8b bc aa 8d 80 3d 0f 60 35 be
       -0.10200982 -0.017022857 0.0627702 -0.17712425
0000c0 3c 82 ad 3d 53 69 48 be c6 ee ab be fc 68 f9 3d
       0.08472106 -0.19571428 -0.33580607 0.12178227
0000d0 3b cf e3 3d c4 cc 36 3e c7 7d a6 bd 8e ea b8 be
       0.111235105 0.1785155 -0.08129459 -0.3611645
0000e0 1b 2d bd be a5 3d b7 bc a4 1e e7 3d a6 37 a2 be
       -0.36948475 -0.022368262 0.11285141 -0.3168308
0000f0 8e 01 e1 3d 2b c5 99 3b c2 b4 8d 3d 56 40 27 bd
       0.10986625 0.0046926937 0.069192424 -0.04083284
000100 7b f3 21 bc 5f 97 7e be 99 42 86 bc f7 c1 8e bc
       -0.00988471 -0.24862431 -0.016389178 -0.017426474
000110 3a 7f 02 be b5 ce 7d bd 83 4a 90 bd 41 38 04 be
       -0.12743846 -0.06196471 -0.07045462 -0.12912084
000120 35 36 55 bd 15 c5 6e 3d 2b 2f 6f 3d 1e d4 35 3d
       -0.05205365 0.05829342 0.058394592 0.044391744
000130 bf 8c 9a 3d 44 50 4e bb 93 d4 11 3e 76 e8 6d bd
       0.075463764 -0.0031480948 0.14241247 -0.05808302
000140 45 85 45 bd 16 49 ab 3d 3b 10 f8 3d f0 b8 5f bc
       -0.0482228 0.083635494 0.12112471 -0.013654932
000150 a8 15 0b 3f 12 d4 04 be de 63 9d be a9 5e 35 bd
       0.5432992 -0.12971523 -0.30740255 -0.044279728
000160 03 b0 74 bd e6 e2 41 3d c7 b8 b7 be 6b 5f ff bd
       -0.05973817 0.047335528 -0.3588316 -0.124693714
000170 d0 a9 21 bd 61 96 32 3e 99 7f be 3d 11 bf 7a be
       -0.039468586 0.17440178 0.09301681 -0.24486949
000180 3f 95 a2 bd 00 66 74 bc 89 4a ce 3c 76 be 1f be
       -0.07938623 -0.014916897 0.025182026 -0.15599999
000190 3e 28 b3 3d fa f2 96 bc fb 36 d2 bd 08 39 3a 37
       0.0874791 -0.018426407 -0.10264393 1.1099743e-05
0001a0 5a 86 22 3e 2c bc a0 3c 02 a3 00 3e 71 b9 6f 3c
       0.15871564 0.019620977 0.12562183 0.014631615
0001b0 40 6b 9b bd 7f f0 06 3d 4a ac 48 3e 1e df 82 3d
       -0.07588816 0.0329442 0.19596973 0.063902125
0001c0 8a 9a 21 3e 17 22 13 3d 45 d4 86 3e b8 da 46 be
       0.15781608 0.035921182 0.26333824 -0.19419372
0001d0 89 ad 61 bd 8b 37 7c 3e 9b bd 07 3e 07 ef bb 3d
       -0.055097137 0.24630563 0.13255922 0.0917645
0001e0 7d aa 26 be 75 4f 83 bd 5c 2f 5c 3d fb 56 64 be
       -0.16275974 -0.064116396 0.053756103 -0.22298805
0001f0 b7 ef 30 3e 86 3d 00 3d d1 cd 67 bd 0d a5 6f bd
       0.17278944 0.031308673 -0.056592766 -0.058507014
000200 69 74 98 bd 48 ce d3 3d f2 e9 83 bb c4 68 b0 3d
       -0.074440785 0.103420794 -0.004025691 0.086137325
000210 91 57 58 be 1a b1 b5 3e 0f be ca bd 60 6f 6f be
       -0.21127154 0.3548668 -0.09899532 -0.2338233
000220 3a 52 88 bd c8 eb 48 bc d1 c8 d4 3c 54 ef 89 bd
       -0.066563085 -0.012263246 0.025974663 -0.06735101
000230 86 74 4c 3e 39 66 b9 bd fc 88 a1 bc 1a 55 6e bd
       0.19966325 -0.090527005 -0.01971864 -0.058186628
000240 35 46 3d be 36 82 fa 3d 57 c3 80 be 5c 1e a7 be
       -0.18483813 0.12231867 -0.25149032 -0.3264035
000250 06 0e 66 bd 01 eb 1d bd e4 0d f0 bc 92 7d 19 be
       -0.056165718 -0.038554195 -0.029303499 -0.14989308
000260 6d 15 98 3d 6d c5 d8 bc 69 88 4c be b6 de 3d 3d
       0.07425962 -0.026461327 -0.19973911 0.04635497
000270 22 59 df bd ed d8 bd 3c 21 6c 7b be 2f ae 00 bf
       -0.109056726 0.023174727 -0.24552967 -0.50265783
000280 ad 42 d7 3d ed 98 3a be 44 b0 1d be 52 d5 37 be
       0.10510764 -0.18222399 -0.15399271 -0.17952469
000290 aa 37 d2 bd ea a1 0f 3e 21 a4 ae bb 2b f3 e3 bc
       -0.10264523 0.14026609 -0.0053296243 -0.027825912
0002a0 45 f8 61 3a 3e f4 73 3d bd 24 c4 bd 67 fa ed bc
       0.0008620064 0.0595591 -0.0957732 -0.029050065
0002b0 8d 84 78 3d b6 69 11 3e 02 15 24 3e 5e fe 07 be
       0.060673285 0.14200482 0.16023639 -0.13280627
0002c0 ef 5c 33 bc 03 c2 9a 3b 73 f8 37 bd c8 35 04 bd
       -0.01094745 0.004722835 -0.044914674 -0.032277852
0002d0 a7 1a a3 3d bf dc 39 bd c0 ee 10 be af fe a3 3c
       0.07964068 -0.045376536 -0.14153576 0.020018904
0002e0 be 49 ea 3d e6 25 ee 3e a9 76 1d be 7f 69 05 be
       0.114398465 0.4651329 -0.15377297 -0.13028525
0002f0 cc b8 e6 bd ed b3 59 3e ce ec df 3e 5d ee 10 3c
       -0.11265716 0.21260042 0.43735355 0.008845893
000300 8d 05 76 be f7 db cf 3d aa 99 c5 3d e8 08 46 be
       -0.24025555 0.10149377 0.0964845 -0.19339335
000310 ae 53 99 bc cc 99 49 3e ea 89 a0 bd 42 7f cb 3a
       -0.01871666 0.19687575 -0.07838805 0.0015525597
000320 5e 92 20 bd 34 05 4b be 36 73 a5 be 37 89 98 be
       -0.039202087 -0.19826204 -0.3231446 -0.29792187
000330 27 e4 84 3d 8c 65 e2 3d 0b 5b 06 bf 03 22 13 3e
       0.06488829 0.11054525 -0.5248267 0.14368443
000340 f1 06 07 3d c3 04 fa 3d 53 9d d9 3d bc 82 21 3e
       0.032965604 0.122079395 0.1062571 0.15772527
000350 09 02 7c 3d 6e a1 55 3d 50 f9 73 3e 43 f8 ef 3d
       0.06152538 0.052155904 0.23825574 0.11717274
000360 79 6c 4e bd a4 b0 22 bd 90 e1 ed 3d 3b 04 41 3e
       -0.050396416 -0.03971924 0.11615288 0.1884927
000370 be 4c 97 3c 4a 8c 56 3e 1b e1 60 3d a2 4b cc 3c
       0.01846921 0.20951954 0.054902177 0.024938408
000380 03 a4 82 be 8f 06 54 3d 59 a5 5f bd 49 e2 63 be
       -0.25515756 0.051764067 -0.054601047 -0.2225429
000390 fb d2 7e bd b4 46 e2 3c 32 e9 69 bc 58 c6 ef 3d
       -0.062212925 0.027621605 -0.0142767895 0.11707753
0003a0 6a 1f ac 3d 12 5f 5b bd b0 3b 73 3c 1f 8f 47 be
       0.08404429 -0.053557463 0.014845774 -0.1948819
0003b0 69 de 9e 3d 82 36 0e 3d 26 b7 ea bc ba 1d 3a bd
       0.07757265 0.03471995 -0.028651785 -0.045438506
0003c0 4e 47 86 bd 2f aa e5 3c a5 d4 13 be 34 df fb 3d
       -0.06556569 0.028035251 -0.14436586 0.12298432
0003d0 cb 22 0b 3e fc e0 83 3c b5 23 8c be a7 8b be bd
       0.13587491 0.016098492 -0.27370992 -0.0930398
0003e0 84 13 05 be b5 3f e5 3d 0f c8 29 3e 20 c9 90 be
       -0.12995726 0.11193792 0.16580223 -0.28278446
0003f0 b6 eb a2 3c 5d 70 47 3e 96 d4 81 3d b8 6f 6d bd
       0.019887786 0.19476457 0.06339376 -0.05796787

fc2.bias f4 [64]
000000 79 4a 4c 3d bc 0a 5b bd 22 a6 f1 3c 8b 84 c5 3c
       0.04987571 -0.053477034 0.029498164 0.024111053
000010 62 e1 1d be 18 92 b0 3d f1 3f eb 3d 55 a9 6b bd
       -0.15418008 0.08621615 0.11486805 -0.057534534
000020 1a c2 86 bc 05 64 03 3e 7c 65 fa bd 70 e4 18 be
       -0.016449977 0.12831123 -0.12226388 -0.14930892
000030 0d 41 6a 3d 82 45 62 3e 5c d0 20 3e 6c 1b 8a 3d
       0.057190944 0.22096828 0.15704483 0.067435116
000040 94 4c a4 3d 5f af e5 3d 81 b2 0b be 15 35 bd bd
       0.080224186 0.1121509 -0.13642313 -0.0923864
000050 9b df 6f 3d 7b 19 c4 3e 28 79 13 3d ca dc 0c bd
       0.058562856 0.3830069 0.036004215 -0.03439025
000060 7d a4 19 3d 70 1c 89 3c f5 2b 77 bd 8f 9e 9e 3d
       0.037510384 0.016737193 -0.060344655 0.077450864
000070 c3 16 8c bd bd 69 e2 bd d1 dd b8 3d 03 50 dd 3d
       -0.06840279 -0.11055324 0.09026683 0.10806277
000080 8d 15 db 3d 82 9a c1 bc bc aa fd bd da be 3c 3e
       0.1069747 -0.023633245 -0.123860806 0.18432179
000090 82 6d 95 3e 1a 74 e0 bd e0 1a 73 bd 02 63 ab 3d
       0.2918511 -0.109596446 -0.059351802 0.083684936
0000a0 3b f7 23 be 06 c8 a1 3d 94 54 62 bd d8 cf fb 3d
       -0.1601228 0.078994796 -0.05525644 0.122955024
0000b0 45 c0 6a bd e0 3b f3 3e 90 63 bb 3d 1a 2b c3 3c
       -0.05731227 0.47506618 0.091498494 0.023824263
0000c0 99 9b 00 3f f1 be c3 3c d5 c3 07 3b 0e 06 1a 3e
       0.50237423 0.023894759 0.002071609 0.15041372
0000d0 db f4 f5 bd 02 a2 db bc d2 e8 a9 bd 25 dc b1 3d
       -0.12009593 -0.02681065 -0.0829636 0.08684567
0000e0 03 3f af 3d 48 6f 12 bd b0 db 7a bd ee a1 8a be
       0.085569404 -0.035750657 -0.061244667 -0.27076668
0000f0 a6 df da bd c8 47 d8 bd 50 fb 7a bd d3 4c 14 3d
       -0.10687189 -0.10560566 -0.061274827 0.036206078

fc3.weight f4 [4, 64]
000000 2f 92 63 bd bf 9e 1e bb b4 66 88 3e f0 56 95 3b
       -0.055559333 -0.0024203507 0.26640856 0.004557483
000010 d0 e1 d2 bd 70 a6 4e 3e ad db 67 3e 74 7b 8d 3e
       -0.102969766 0.20180678 0.22642393 0.2763325
000020 2e 2d b0 bd f3 e0 09 3e 55 7a 19 3d 4c d3 e9 bc
       -0.08602367 0.13464718 0.03747018 -0.028543137
000030 f4 fb 06 bf 04 f4 bb 3d 3a 02 58 3d ee 4d ba be
       -0.527282 0.09177402 0.0527365 -0.3638758
000040 2f fa 98 3e 89 e4 3a 3e b8 e3 1e be d4 20 85 3e
       0.29878375 0.18251242 -0.15516555 0.26001608
000050 e1 79 33 be d9 99 26 3e e3 1c e9 3e 87 ae 33 3e
       -0.17526962 0.16269626 0.4552985 0.17547046
000060 e8 c2 52 3e 5b 0a d3 bd 35 a7 69 3e 72 d4 b1 3e
       0.20582163 -0.103047095 0.2281769 0.34732395
000070 c0 bf 18 3e 37 33 6b be 70 d7 10 3e 96 5c 8b 3d
       0.14916897 -0.22968756 0.14144683 0.06804769
000080 2b af 1e 3d f6 42 6b be 5a dc b1 bd 60 13 03 3e
       0.038741272 -0.22974762 -0.08684607 0.1280036
000090 b1 a3 51 3e a0 36 e8 bd 87 76 0c 3f 27 50 a5 3e
       0.204726 -0.11338544 0.5486836 0.32287714
0000a0 a9 c2 6a be 46 66 b3 3e 12 04 52 be eb fa 58 3d
       -0.2292582 0.35038966 -0.20509365 0.05297367
0000b0 ab 7f 8e 3d ce 57 4d 3e 60 58 82 3e be da 0d 3e
       0.069579445 0.20053026 0.2545805 0.13852975
0000c0 76 07 48 3e 49 cb f4 bd 45 bf 21 bd 48 5f 80 3e
       0.19534096 -0.11952836 -0.03948905 0.25072694
0000d0 7c 3e ac bd da 80 b5 bd 5d cd 9a 3e 7a 8e 8c 3e
       -0.084103554 -0.08862467 0.30234805 0.2745245
0000e0 90 16 1f 3e df fa b5 3e 62 9f cd 3d 26 c1 6f be
       0.1553595 0.35542962 0.100401655 -0.23413524
0000f0 22 61 c2 3c bb 80 94 3c 73 0a 83 be b1 1f 23 bf
       0.023727957 0.01812779 -0.2559391 -0.6372023
000100 a2 58 d4 3c 32 40 89 bd 2a 04 88 3e 74 a1 0b be
       0.02592117 -0.067016974 0.26565677 -0.13635808
000110 8a fa f7 bd 6f 1e 2f 3e 79 03 86 3e e2 a7 c0 3e
       -0.121083334 0.17101453 0.26174524 0.37628084
000120 13 4b 03 3e 87 3c f6 3d fc b6 e9 bd 9c 97 4d bc
       0.12821607 0.120232634 -0.114118546 -0.0125483535
000130 92 b1 bc bd c6 75 d5 3d ef fd 1a 3d 82 29 90 3e
       -0.09213556 0.10422854 0.037839826 0.28156668
000140 40 d3 c3 3e ce 97 90 3e 40 af 39 bd 6c c1 9b 3e
       0.38247108 0.28240818 -0.045333147 0.30421007
000150 e3 38 8b bd 4e a4 f6 3d 3f 98 a9 3e 1c 6f 05 3e
       -0.0679796 0.120430574 0.33123967 0.13030666
000160 b7 df 81 3e 22 7f 79 bb 91 c4 e8 3e 8f 99 09 3f
       0.25365993 -0.0038070162 0.45462468 0.53749937
000170 ce 3f b4 3e 51 3a 62 be a8 a0 12 3e 32 12 0f 3e
       0.3520493 -0.22092558 0.14319098 0.13971785
000180 0b 1a 23 3d 05 40 25 bf 2f 8a 26 be 88 6e e8 3c
       0.03981976 -0.6455081 -0.1626365 0.028373018
000190 c1 36 fc 3d 12 ff 9c 3d ca 73 04 3f 55 53 9b 3e
       0.12315131 0.07665838 0.5173918 0.30337015
0001a0 a2 df 15 be c4 37 84 3e 6c 4b 30 be 74 24 17 3e
       -0.1463609 0.25823796 -0.17216271 0.1476
0001b0 61 58 27 3e cd fb 56 3e a4 c9 66 3e 34 50 4e 3e
       0.16342308 0.20994492 0.22537857 0.20147783
0001c0 00 83 38 3e 2e c7 37 be 2f 96 57 3d 17 a3 4a 3e
       0.18018723 -0.17947075 0.05263346 0.19788776
0001d0 25 96 1c 3e e9 22 e7 3b 77 8f 2a be 03 3c 27 3e
       0.1529165 0.007053722 -0.1665629 0.16331486
0001e0 09 fc f7 3d b5 8f a9 3e b3 ce 89 3e a7 61 07 be
       0.12108619 0.33117452 0.2691551 -0.13220845
0001f0 e3 52 3c 3b 74 1a 56 be 67 33 e9 bd d8 c7 3a bc
       0.0028735928 -0.20908529 -0.11386757 -0.0114001855
000200 41 91 cb be be 14 46 3d 17 85 9b 3e b5 61 37 be
       -0.39759257 0.048359625 0.30374977 -0.17908366
000210 49 fc 1a be 2d 13 65 3d 48 dd 79 3e 5d 43 82 3e
       -0.15135302 0.05592649 0.24400818 0.2544202
000220 0e 6b c2 3d f9 5c 57 3e a6 4a c5 3d c8 d6 98 be
       0.09493075 0.2103156 0.09633379 -0.29851365
000230 22 97 83 be a8 e0 1d 3e 7e 5a c1 3d fc 9d 23 3e
       -0.25701243 0.15417731 0.09441088 0.15978235
000240 5e 18 96 3e e2 9f 30 3e d6 21 6b 3c f2 84 c5 3e
       0.29315466 0.1724849 0.014351329 0.38577992
000250 de 6c 6c be ba a1 0b 3e 62 ad 52 3e db 30 6d 3e
       -0.23088405 0.13635913 0.20573953 0.23163168
000260 0b 59 5a 3e 4c 17 3a 3c 16 4a 29 3e d2 40 f1 bc
       0.2132303 0.0113580935 0.16532168 -0.029449854
000270 66 37 0f 3f d4 99 26 be bd dd 12 3e 72 58 aa bd
       0.55943906 -0.16269618 0.14342399 -0.08317651
000280 17 a3 70 3d 02 2e f4 be 0b fd 61 be 2f fd ef bc
       0.058749285 -0.4769135 -0.22069184 -0.029295532
000290 e6 31 8b 3d e7 1e 85 3c 43 eb 3c 3f cb 38 c5 3e
       0.06796627 0.016250087 0.7379648 0.38519892
0002a0 94 10 9f bd e2 c9 b0 3e d2 72 26 be 92 d0 6b 3e
       -0.07766834 0.34529024 -0.16254738 0.23028782
0002b0 c9 01 13 be 59 f5 17 3e 84 b6 e3 bc e9 c8 50 3e
       -0.1435615 0.14839686 -0.027796991 0.20389141
0002c0 b0 24 5d 3e a4 3c a8 be 7c 0f f6 3d a7 ce 68 3d
       0.21596026 -0.32858765 0.12014672 0.056837704
0002d0 88 85 81 be 2a 05 73 3e 44 8a 9b 3d 1a 20 0e 3e
       -0.2529719 0.23732439 0.075947315 0.13879433
0002e0 fd 10 af bc 7e a0 78 3e f4 01 fc 3e b5 00 6d bd
       -0.021370405 0.24279973 0.4922024 -0.057862002
0002f0 a2 98 c4 3d e5 2a 8b bb 2f 59 85 3d aa 8a 24 be
       0.09599425 -0.004247057 0.06511151 -0.16068521
000300 6b 0c ff bd 8e fc bf bd ab 3d 83 3e ef 94 ef bd
       -0.124535404 -0.09374343 0.25632986 -0.11698329
000310 c2 b9 ee bd 9d 8d 12 be 99 ff 1b 3e cb e6 97 3e
       -0.11656524 -0.14311834 0.15234222 0.2966827
000320 a3 ae f3 3d 80 29 46 3d ab 25 5d bd da ef fc bd
       0.11898544 0.04837942 -0.053991 -0.123504356
000330 9d a2 a4 be 0f 69 ee 3d d6 9e 10 3e 2b f4 69 bd
       -0.32155314 0.11641132 0.14123091 -0.057117622
000340 b1 dc 03 3f df 64 e2 3e 44 84 bb 3e e3 40 5a 3e
       0.51508623 0.44217584 0.36624348 0.21313815
000350 69 46 87 bd a3 7d 2f 3e 13 19 12 3f 9e 27 3a 3e
       -0.066052265 0.1713777 0.5706951 0.18179175
000360 ee 0a 3e bc 23 37 f4 bd 6a d0 0d 3f 70 b6 2f 3f
       -0.0115992855 -0.11924579 0.5539614 0.6863775
000370 70 e4 1c bd ab 04 5e be 98 a9 94 3e 20 f6 48 3e
       -0.038303792 -0.21681468 0.2903564 0.19625139
000380 9b f0 ad bc 18 49 9c be 2b 8d 3b be f6 79 3a bd
       -0.021232894 -0.30524516 -0.1831557 -0.045526467
000390 0e a8 2b 3e f3 6c 82 3e 4e 57 bb 3e 91 ba 0b bc
       0.16763327 0.25473747 0.36590046 -0.008528368
0003a0 f9 df 8e be af 68 89 3e 03 09 c4 be 10 f1 bc 3d
       -0.27905253 0.2683768 -0.38288125 0.092256665
0003b0 56 fa 0c bf 3a e6 c3 3d 55 89 e1 3c 01 a8 8a 3e
       -0.5506948 0.095653966 0.027531305 0.27081302
0003c0 05 00 53 3e a2 09 05 bc 1c 15 c2 3d d2 f4 9c 3d
       0.20605476 -0.008119972 0.094766825 0.07663883
0003d0 43 f8 6b bd 61 ac f0 3c 26 57 87 3e 13 70 4d 3e
       -0.057609808 0.029379072 0.26433676 0.20062284
0003e0 14 6d 6c 3d 39 f8 77 3e c3 68 56 3c dc 31 56 bd
       0.057721213 0.24215783 0.013086501 -0.052293643
0003f0 7d a7 67 3c 50 09 85 3e b4 c5 cc bb 9b 1b e3 be
       0.014139053 0.25983667 -0.006249154 -0.44357

fc3.bias f4 [4]
000000 e0 bc 8a 3e de b7 8c 3e bc b9 af 3e 0f 5d a8 3e
       0.27097225 0.2748403 0.34321392 0.32883498
