checkpoint4L.pth (torch_old, 45290 bytes, 8 tensors)

fc1.weight f4 [64, 37]
000000 8c 4f 0e bc 31 ce a4 bd 0d bb 7f 3d d1 da 13 be
       -0.008685958 -0.080471404 0.062434245 -0.1443894
000010 bb 27 73 bf 5b 3a c4 bd 1a a8 8a 3c 4a 60 21 3e
       -0.949825 -0.09581443 0.01692586 0.15759388
000020 e9 01 a6 3e 9f 8d 04 be f6 e8 61 bd 42 e0 08 3d
       0.32423332 -0.12944649 -0.05515381 0.033416994
000030 de 78 10 3d 37 98 78 3d b1 1a ca 3e 5e e3 02 be
       0.035271518 0.06069204 0.3947349 -0.12782046
000040 51 e2 06 3e e5 cc 04 bd 41 22 ce 3d 80 2f 3c be
       0.1317227 -0.032421965 0.10065127 -0.18377495
000050 09 a4 a5 3d 0c 6e 1a 3e ef 72 22 be b6 e7 da 3d
       0.08087928 0.15081042 -0.15864156 0.106887266
000060 7c 6e 87 3e 2f fa 00 be 88 a0 fd bc 8c f8 db 3d
       0.2645148 -0.12595437 -0.030960336 0.10740766
000070 b1 1a 14 3e 4a 4b 5f bc 4c 1b 20 be ae b6 0a be
       0.14463307 -0.01362879 -0.15635413 -0.1354625
000080 49 df d7 3b 0c a5 96 3e d5 d3 2d 3e e5 1a 84 3c
       0.006587897 0.29422796 0.16975339 0.016126106
000090 f0 ac ab bc 83 d7 aa bb 13 ba 76 3e d9 5b 50 be
       -0.020956486 -0.0052136793 0.24094419 -0.20347537
0000a0 1e a1 ae bc a5 b7 89 bf e2 49 08 3e f6 08 b8 3d
       -0.021317061 -1.0759169 0.13309434 0.08986084
0000b0 ee b2 93 3d c9 66 6a 3d 82 bf f5 3c e6 5b 42 bb
       0.072118625 0.05722693 0.029998545 -0.0029656827
0000c0 dd b8 02 be e1 b3 3c 3e e3 21 4d 3e e1 bc 45 3d
       -0.12765832 0.18427993 0.20032458 0.048275832
0000d0 1f a1 ba bd b2 23 04 3e 66 fa fe 3d a4 dc e9 3d
       -0.09112763 0.12904242 0.124501035 0.11419037
0000e0 c1 70 20 bd ca 43 6d 3d 2f 25 8f bd 2d 78 d0 3c
       -0.03917003 0.057925977 -0.06989514 0.02544793
0000f0 32 64 02 3e 30 24 08 3e c2 92 40 be b8 21 16 3e
       0.12733534 0.13295054 -0.18805984 0.146613
000100 ce b0 20 bd 05 70 c6 bd 4c f3 ae 3d fc de 60 3e
       -0.039231114 -0.09689335 0.08542499 0.21960062
000110 ac ba 82 3d 56 e4 77 3c 46 4a 26 3e 25 c0 25 3d
       0.06383261 0.015130123 0.1623927 0.040466446
000120 36 a0 75 3d 30 ac fa 3a ee 4f 5f be 0c bc 51 3e
       0.059967242 0.0019124802 -0.21807835 0.2048189
000130 e7 e4 0b be 01 ca 99 3b cd 81 02 be ac 38 2d be
       -0.13661538 0.00469327 -0.12744828 -0.1691615
000140 73 12 56 3e b1 93 89 bd 31 da d5 3d 12 7f 93 3e
       0.20905475 -0.06717623 0.10442007 0.28807884
000150 2b 76 67 be 89 a8 a2 3d c8 63 8a 3d 42 0a 0b 3e
       -0.22603671 0.07942302 0.06757313 0.13578132
000160 f0 db 03 be cb ad 64 bd 86 4d 51 bb bc 6e 89 3d
       -0.12876868 -0.055829804 -0.0031937077 0.06710574
000170 f5 5b ed 3d dd 8b f9 3d 1c 3c 75 3d 22 ba ef bd
       0.11589805 0.1218488 0.059871778 -0.11705424
000180 fd 83 8c 3d f6 22 54 be 38 fc 18 be 5c 6d 1b 3e
       0.06861112 -0.20716462 -0.14939964 0.15178436
000190 eb f9 1d bf ec 2d 9a be ba 01 25 be 6a 78 88 bf
       -0.6170947 -0.3011316 -0.1611394 -1.0661747
0001a0 45 39 9a bd f7 15 02 be 7a ac ef bd f1 4a 25 3e
       -0.075304545 -0.12703691 -0.11702819 0.16141869
0001b0 9b e9 fc 3d 98 d9 39 3e 4d 05 16 3d 61 cc 5a bd
       0.12349244 0.18149412 0.03662615 -0.053417567
0001c0 c6 14 ff bd 1b 6a e4 bd 71 8b 32 be 40 c0 da bd
       -0.12455134 -0.111530505 -0.17436005 -0.106812
0001d0 c4 ba 44 bd dc 67 55 3e d6 83 83 3e c3 3f a7 bd
       -0.048029676 0.208404 0.2568652 -0.081664585
0001e0 56 57 03 3e 9b ab 0e 3e 8d cb 28 bd 67 64 97 3d
       0.12826285 0.1393265 -0.041209746 0.07392197
0001f0 3b e3 03 3e 5f 08 14 be 6f d7 89 bc 23 c2 98 3c
       0.1287965 -0.14456318 -0.01682636 0.01864726
000200 75 eb c8 3c 31 81 99 3d d4 e7 73 3e a6 6b 90 3e
       0.024526337 0.074953444 0.23818904 0.2820713
000210 cf a9 96 bd a2 8a 0a 3c aa 52 21 be 7b 33 b4 be
       -0.07356607 0.008455904 -0.1575419 -0.35195526
000220 27 3f b2 3a 3e 12 fc bd 17 ad 94 3d 32 15 fe 3c
       0.0013599143 -0.12308167 0.07259577 0.031015966
000230 b0 84 a9 3d ac 13 61 3e b5 1f 08 bd 75 18 9f be
       0.08277261 0.2198016 -0.033233363 -0.31073347
000240 9f 02 53 bd c3 64 60 bf 2f 52 cd 3c 28 87 dd ba
       -0.05151617 -0.8765375 0.025063602 -0.0016901242
000250 8a c6 33 be ad c3 b5 bd 52 a2 0b be 88 bf d0 bd
       -0.17556205 -0.08875213 -0.13636139 -0.10192782
000260 6c 1c 31 3e cd 83 f8 3d 0b c7 fb bd cc 0b b7 bb
       0.17295998 0.12134514 -0.12293824 -0.005586123
000270 a5 79 14 bf e1 5a b4 bf 00 6a 0a be 19 68 00 3e
       -0.57998115 -1.4090234 -0.13516998 0.1253971
000280 b4 4d 79 3d 3a 7b 25 bd a7 56 6b bd 92 f7 ec bd
       0.06086512 -0.04040072 -0.057455685 -0.11570658
000290 99 c3 c1 bd 6d b2 4f 3e 9b d4 d3 bc aa 93 07 be
       -0.094611354 0.20282908 -0.025858214 -0.13239923
0002a0 00 97 04 3c 99 47 72 3e 4b 10 dd 3d 75 59 59 bd
       0.008092642 0.23660125 0.10794123 -0.05306383
0002b0 ed ae dc 3d 2c bf 2c bd 7b 8e b3 3c 15 a6 b5 3d
       0.10775552 -0.042174503 0.021918526 0.08869568
0002c0 0c c5 45 be c8 cc 50 be 70 dc 31 bd a7 f5 a0 bd
       -0.19313449 -0.20390618 -0.043423116 -0.078593545
0002d0 e6 c0 b8 bc 2e e3 80 3d d3 53 f4 3d 2d fc 92 3c
       -0.022552919 0.06293331 0.11930051 0.017942512
0002e0 a4 b9 d5 3c 06 24 9f 3d 93 59 cf 3b 9a 3a 21 3d
       0.026089497 0.07770543 0.0063278168 0.039362527
0002f0 17 b7 27 3d 31 c3 cf 3e 11 9a 28 3c ee d5 7b bd
       0.040946092 0.40578607 0.010290639 -0.061483316
000300 50 8e 02 3e 29 c5 c5 3e 19 72 9a 3e c6 3e 52 be
       0.127496 0.38626984 0.30165175 -0.20531759
000310 17 3d 12 3c cf 73 16 3e 06 ad 84 3e 1e 97 aa 3e
       0.008925698 0.14692615 0.25913256 0.33318418
000320 f6 17 f5 3c ee be 4e be 90 e5 49 bd 02 6f 76 bd
       0.029918652 -0.20190021 -0.049291193 -0.06016446
000330 b6 09 95 3d ce 4e c4 bc 5f ce 2b 3e 7a 11 fe 3d
       0.07277243 -0.023963358 0.16777943 0.12405677
000340 b4 e7 6b 3d 0b 48 3a 3e b0 8f e8 bd 53 5a 80 3d
       0.057594016 0.18191545 -0.11355531 0.06267228
000350 bf bc 53 3c e2 dc 8b 3b 7f ea b8 3e ef 11 3a 3e
       0.012923419 0.0042682746 0.36116406 0.18170904
000360 fb 1f 47 be 02 48 a4 bd 59 40 e1 be 17 30 1a bf
       -0.19445793 -0.08021547 -0.43994406 -0.6022963
000370 63 9f 39 3d e1 c9 9f bb 5c 3a df bd 6e f9 50 be
       0.04531802 -0.0048763608 -0.10899803 -0.2040765
000380 ba af 24 3d a1 32 82 3d 56 c0 0e 3d 18 c0 43 3e
       0.04020665 0.06357313 0.034851395 0.19116247
000390 72 ef a7 bc 0a ba 36 bd 4a 61 6f bd 73 20 98 3d
       -0.020499919 -0.044611014 -0.05844239 0.07428064
0003a0 03 43 85 bd 8f 41 a8 be 64 f6 e8 bd 66 ad 93 bd
       -0.06506922 -0.32862517 -0.1137512 -0.072108075
0003b0 84 44 ff 3d 66 38 c6 3d 0f 22 2b 3e 95 85 72 bd
       0.1246424 0.09678726 0.16712211 -0.059209425
0003c0 79 66 92 3d 08 a1 9e 3e d9 5c bb 3d 3b 9c 4b 3c
       0.07148451 0.30982232 0.09148569 0.012427385
0003d0 0a 97 66 bc 93 5b 99 bd 94 16 9d bd ad 34 2e 3d
       -0.014074096 -0.074881695 -0.07670322 0.042530704
0003e0 12 98 5e 3d d2 01 8e bd e7 f4 a3 bc cd ee 83 3e
       0.054344244 -0.06933941 -0.02001424 0.25768128
0003f0 a2 ad ad bc 4b 19 16 be 47 e2 0a be 0e eb 00 3e
       -0.021200959 -0.14658086 -0.1356288 0.12589666

fc1.bias f4 [64]
000000 81 16 96 3d a2 90 86 3d 6c 17 90 3d fd 09 1c 3e
       0.07328511 0.06570555 0.07035717 0.15238185
000010 0d db 02 3e 9f dc 95 bd 7f 4c 7a bd ff 95 64 3d
       0.12778874 -0.07317471 -0.06110811 0.05580711
000020 23 bd 85 3e 2f 13 66 bd 3f fc ad 3d 9b f5 cd bd
       0.26120862 -0.05617064 0.08495378 -0.10056611
000030 46 58 0b 3e e7 69 ca ba 72 90 c3 3d 1e 99 6b bc
       0.13607892 -0.0015442938 0.09549035 -0.014379768
000040 1b 61 ec 3d 5e e1 c0 bc 37 04 58 3d 5f de fe 3d
       0.11541959 -0.023544963 0.052738395 0.12444758
000050 a3 8c 1f 3e ba a9 0a 3e aa 31 5a bb 1c d4 c7 3d
       0.15580992 0.13541308 -0.0033293762 0.097572535
000060 36 35 d8 bd 97 d8 1a bd 0b 64 6d 3b 09 5e 3d 3e
       -0.10557024 -0.037804212 0.003622296 0.18492903
000070 3b a8 02 3e d9 17 9c bc 9d ef 94 3c e9 e4 f9 3d
       0.12759487 -0.01905434 0.018180663 0.12201864
000080 61 ff 97 3c 07 dc 12 3d f6 88 31 3e 88 e8 1a be
       0.018554391 0.035854366 0.17337403 -0.15127766
000090 82 32 a4 bd 01 35 96 bd a9 bd 2b 3e d7 74 9e 3d
       -0.08017446 -0.073343284 0.16771568 0.07737129
0000a0 65 ab 9d 38 86 aa 43 3e 23 e0 8c 3d b1 92 ca 3d
       7.518268e-05 0.19108018 0.06878688 0.098912604
0000b0 da 6d 29 3d 48 52 21 3e 34 9b 5b bc d4 a5 d8 bd
       0.04136453 0.15754044 -0.0134037025 -0.10578504
0000c0 5d c4 c9 bd ce f5 d0 3d 79 89 a3 3d b1 98 f5 3d
       -0.098519064 0.102031335 0.07985205 0.11992014
0000d0 31 5b 25 bd 34 d0 ab 3d c1 7d ac bd 55 8c 53 bc
       -0.04037017 0.08389321 -0.08422423 -0.012911876
0000e0 dc d7 4d 3e 84 b6 83 3d 05 c2 76 3d c4 68 13 be
       0.20101875 0.064312965 0.060243625 -0.14395434
0000f0 72 e0 48 bd a3 c9 c8 bd 4d f7 13 3e 7d 61 e1 3d
       -0.049042173 -0.09804084 0.14449807 0.110049225

fc2.weight f4 [64, 64]
000000 1a 3d 5c bd cc 7f b4 bd f0 4c 02 3d 5b 11 2c 3e
       -0.05376921 -0.08813438 0.031811655 0.16803496
000010 86 90 1b be 12 c4 8a 3c 78 a6 94 3c a6 8c 8c 3c
       -0.1519185 0.016939197 0.018145785 0.01715691
000020 b0 fa ef 3d 59 68 26 3e e2 e6 c9 3d 56 2e 45 be
       0.11717737 0.16250743 0.098584905 -0.19255957
000030 b2 b2 03 bd 42 f6 d8 3d 01 96 cd 3d e0 48 6a 3d
       -0.03215284 0.10593845 0.100383766 0.057198405
000040 6c 77 d9 bc 4e 23 c2 bc 9a b9 b1 3d 20 68 82 3d
       -0.026546203 -0.023698475 0.08677979 0.063675165
000050 14 b8 67 3d 17 0e db bd 28 cc ef bd 48 85 34 bd
       0.056572035 -0.10696047 -0.117088616 -0.04407242
000060 51 9f f8 bd f2 5d 00 3e bc 89 83 3d f9 7c 90 3d
       -0.12139762 0.12535837 0.06422755 0.07055087
000070 c7 2d b6 3d 3d d0 44 be fd a5 aa bd a1 f6 74 3e
       0.0889545 -0.19220062 -0.08332441 0.23922206
000080 a6 b1 00 be 05 f0 c6 3d 09 f5 14 3e 6b e9 a5 bc
       -0.12567768 0.09713749 0.14546598 -0.020252904
000090 9b ea bc 3c 5c 16 e9 bd 95 32 d8 3d 43 85 4c 3d
       0.023061087 -0.11381218 0.10556523 0.049931776
0000a0 d9 96 25 3d 3d c0 a5 3d 27 42 85 bd 95 4a 1a be
       0.040427063 0.08093307 -0.06506758 -0.15067513
0000b0 7c 94 34 bc 1f 2c 13 3d b1 7b b4 be 00 37 e5 3e
       -0.01102173 0.03593075 -0.3525062 0.44768524
0000c0 b6 bd af bb 9c bc e5 bd bd bd b9 3d 3d cc 0f 3e
       -0.0053631915 -0.11217615 0.09069393 0.14042754
0000d0 cd aa bd 3d f3 2e 4d 3d 63 7c 1e 3d 8f 0b 66 3d
       0.09261093 0.050093602 0.038692843 0.056163367
0000e0 94 6e c0 3d 46 2c d9 3d da cc 92 bc a6 30 50 3c
       0.09396091 0.106041476 -0.017919946 0.012706911
0000f0 2e e5 a4 bb 53 9f 9b bd ab 3a 06 3e c6 65 eb bc
       -0.005032203 -0.07598748 0.13108318 -0.028735053
000100 e3 83 3c 3d 9b 10 e2 bd ec 23 e5 bc 85 4a a4 bc
       0.046024214 -0.110383235 -0.02797123 -0.020055065
000110 bb 6e 0e be 50 1e 1a bc 1b b0 f0 3d 72 6f 2e be
       -0.13909428 -0.009406641 0.117523395 -0.170347
000120 76 0a b5 3d b7 30 62 be fd a7 13 3e 46 15 e3 3d
       0.08839886 -0.22088896 0.14419551 0.11088042
000130 7e 7d a6 3d 07 cf 9b be 14 5f 9f 3d 92 8e 89 bd
       0.081294045 -0.30431387 0.077818066 -0.06716646
000140 61 3a 19 3d c1 7e 1e bd 59 81 dd bd 9e 0b 9c bd
       0.03740919 -0.0386951 -0.10815687 -0.07619403
000150 c0 84 e9 bd 10 d6 14 b8 40 d8 76 3d 0e 2b b5 bb
       -0.11402273 -3.548531e-05 0.060264826 -0.005528814
000160 81 3a 88 3d 19 96 94 bd 69 93 6f bd 47 1e db be
       0.06651784 -0.07255191 -0.05849019 -0.42796537
000170 32 ef 81 3d ef 2b 52 3c b4 47 9f bc b5 77 6c be
       0.06344451 0.012827857 -0.01944337 -0.2309254
000180 0b 47 05 3e a9 27 c4 3c d1 db b9 bd 2a db d0 bc
       0.13015382 0.023944693 -0.0907513 -0.02549513
000190 5b 88 84 3c 57 76 d5 3b 23 e6 a6 3d 42 54 7e 3c
       0.0161783 0.0065143513 0.08149364 0.015523018
0001a0 5d cd eb bd 87 bd dc be 9c 9a 78 3d a1 bb 03 3c
       -0.11513779 -0.43113348 0.060694322 0.00804034
0001b0 d3 97 c6 3d 0d 75 c5 be b2 f9 d5 bd 73 53 cd be
       0.09696927 -0.38565865 -0.10448016 -0.4010273
0001c0 50 cd aa bc 49 fc 22 3d 45 1f 16 3d 6d c2 6f be
       -0.020849854 0.03979138 0.036650915 -0.23414011
0001d0 67 47 a2 3d 66 9e e8 3d 14 2f 5f 3e 3e 8f d0 bd
       0.07923775 0.11358337 0.21795303 -0.10183571
0001e0 ce 54 39 3e 7b d0 07 3e 38 c5 94 3b 2c 7e 8b bd
       0.18098757 0.13263123 0.004540112 -0.06811175
0001f0 97 29 16 3e 66 fc 33 bb 3a 62 d0 be a9 63 5b be
       0.14664303 -0.0027463674 -0.4069994 -0.21424736
000200 9e c3 24 3d ae dd 8d be b7 5c 37 bc 14 1a 0c be
       0.040225618 -0.2770819 -0.011191539 -0.13681823
000210 f8 bb fc 3c 76 6a 9b 3d dd 40 3f bd bd 5a 74 be
       0.03085135 0.07588665 -0.046692718 -0.23862739
000220 69 fa 67 be 72 dd 90 be 4a a0 d0 3c 2e 92 ae bd
       -0.22654118 -0.2829395 0.025467057 -0.08523975
000230 33 24 1c bc d3 43 7b be 80 75 5d be 60 87 f4 be
       -0.009530115 -0.24537592 -0.21626854 -0.47759533
000240 be 4a bd bc 5c b8 98 3d 89 16 52 be ba 8e 66 be
       -0.023106929 0.07457039 -0.20516409 -0.22515383
000250 d8 a2 82 be 37 a1 23 3e 58 0a 2a be 6f 57 82 bc
       -0.25514865 0.15979467 -0.16605508 -0.015910832
000260 ea be 3e be 99 e1 f5 be 21 5c cb be e1 0d c0 be
       -0.18627515 -0.4802368 -0.39718726 -0.3751059
000270 0d 4e 33 3d e2 3f 88 bd 79 15 2c bf 2d fa 44 be
       0.043775607 -0.0665281 -0.67220265 -0.1923606
000280 6d 91 b4 3d 05 c6 e5 3b 6f 8d 68 be b0 f0 95 bd
       0.088168 0.007012131 -0.22710203 -0.07321298
000290 3d 5b 35 3c 47 9a 88 bd 0a 2a 59 be ea cb 98 3d
       0.011069116 -0.06670051 -0.21207443 0.074607685
0002a0 b2 eb 20 be 65 47 0b 3e c0 a0 39 3e 39 6e 85 bc
       -0.1571491 0.13601454 0.18127728 -0.01628791
0002b0 de e5 5a 3d 59 11 76 3c 8b 6d 65 3e c4 35 b1 be
       0.053441875 0.015018784 0.22405069 -0.34611332
0002c0 61 8a 1a bf 7b ee ad be 2e 0d d0 bd d4 66 0e bf
       -0.603674 -0.3397101 -0.10158764 -0.55625653
0002d0 ff fd 5b 3e 5f d2 9d be 71 65 60 3e ec fb 99 be
       0.2148361 -0.30824563 0.21913697 -0.30075014
0002e0 28 10 45 3d f2 5b 01 3d 5c 11 d7 be 9f ed dc bd
       0.04811111 0.031581827 -0.42005432 -0.1078751
0002f0 7e b3 c9 be 9a cd 1d be 01 6c 66 be 32 fb 2a be
       -0.39394754 -0.15410462 -0.22502138 -0.16697386
000300 74 25 7e bc 77 41 15 bd 55 46 59 be e2 9e 61 be
       -0.015511859 -0.036439385 -0.21218236 -0.22033265
000310 f1 ef ed 3d 81 c5 0c 3e 82 fa 3b 3d a6 fa 73 be
       0.11618031 0.13747217 0.0458932 -0.23826084
000320 15 13 c1 bd c5 67 00 be 34 70 48 3d 6a f4 ff bc
       -0.09427468 -0.12539585 0.04893513 -0.031244475
000330 8f 80 1d 3d b3 62 41 be 02 19 da bc f0 92 f0 3c
       0.03845268 -0.18885307 -0.026623253 0.02936694
000340 45 4f 97 bb c7 ed 81 bd d1 6c 8d 3e f5 35 f5 3d
       -0.004617604 -0.063441806 0.27622083 0.11973182
000350 b9 bd 73 3e 05 fa d1 3d 75 3a ed bd ca de 8e 3b
       0.23802842 0.102527656 -0.115834154 0.0043600546
000360 81 6d 0f be 40 71 38 3e 68 02 c7 bc 9f 3b 24 3f
       -0.14006616 0.18011951 -0.02429314 0.64153475
000370 7f 5a d9 3d 13 9e 12 bd 9c a6 e1 bd 36 be a5 be
       0.10612964 -0.035795283 -0.11018106 -0.32371682
000380 6c 0c 71 bd a1 38 71 3c 64 cb a0 bd 35 19 db bc
       -0.058849737 0.014722974 -0.07851294 -0.026745418
000390 77 9f be 3d 64 b6 0a be f7 8c 0d 3e 25 50 8f 3c
       0.09307759 -0.13546139 0.13823305 0.01749427
0003a0 16 01 49 3d 56 d8 3a be 79 64 d8 bd 54 6c 21 3d
       0.0490733 -0.18246588 -0.10566039 0.03940995
0003b0 73 69 8a bd 52 b5 45 3d 25 59 1b 3d 6c 97 cc be
       -0.06758394 0.048268624 0.03792681 -0.39959276
0003c0 6b ce 72 be b2 81 64 3d 6a b7 92 bd 66 65 2f be
       -0.23711555 0.05578775 -0.0716389 -0.17128524
0003d0 7d c2 8f 3d 39 6f a5 3c 88 97 cb bd c0 22 a8 3c
       0.070195176 0.020194637 -0.09941012 0.020524383
0003e0 1a 3b 31 be d8 2f 33 3d 5b 26 15 3d f3 97 3a be
       -0.17307702 0.0437468 0.03641353 -0.18222027
0003f0 69 6d 65 3d fc e3 6e bd b8 99 82 be 15 f7 bd bd
       0.056012545 -0.05832289 -0.25507903 -0.09275643

fc2.bias f4 [64]
000000 9d a8 07 3e b0 40 92 ba 6f f7 b6 bc 95 fd b8 3d
       0.13247915 -0.0011158194 -0.022334782 0.09032742
000010 dd 3f 87 bd 21 d4 c9 3d b1 0d fc b9 d4 1b e4 bd
       -0.06603978 0.098549135 -0.00048075386 -0.1113812
000020 e0 eb 05 be 38 b5 cd 3d 2a c7 8f bc db 75 a2 bd
       -0.1307826 0.1004433 -0.017551024 -0.079326354
000030 98 62 1a 3d c4 e4 95 3d c1 b2 74 bb 38 a0 61 3d
       0.037691683 0.07319024 -0.003733799 0.055084437
000040 1a c4 55 3d 6f 5b bf 3d 34 47 03 be df 82 de bd
       0.05218897 0.093436114 -0.1282013 -0.108648054
000050 39 d3 7e 3d f5 84 3c 3d f1 df dc 38 28 0e 27 be
       0.062213156 0.046025235 0.0001053213 -0.16313994
000060 14 26 35 bd a5 33 15 3e 76 d3 9c bd 1c 56 b1 bc
       -0.044225767 0.14570482 -0.076575205 -0.021647505
000070 a6 0c a6 bd fc 80 ee bc 91 9d dd bc fd f1 3f 3d
       -0.08107881 -0.029114239 -0.027052673 0.046861637
000080 55 8c f9 3c 75 7b c5 bd 83 5f 02 3d 8b 3d e6 bb
       0.030462423 -0.09642688 0.03182937 -0.0070263795
000090 54 a0 c5 3d 68 e2 55 bd 6f a4 ea bc ff 7b 80 bc
       0.09649721 -0.05221787 -0.028642861 -0.015684126
0000a0 1d fc 00 be 7f 3b 1f bc 07 43 40 3c cc 15 c5 3d
       -0.12596174 -0.009718775 0.011734731 0.09623298
0000b0 5e fb 55 bd af 10 a2 3a c8 7f fb bc 3f 72 99 bd
       -0.052241676 0.0012364591 -0.03070058 -0.07492494
0000c0 6e db ed 3d 31 4e 2e ba 71 07 b2 bd 57 d2 59 bd
       0.116141185 -0.00066492247 -0.086928256 -0.05317911
0000d0 8e 6c 95 bd 1d 90 d3 bc 00 e1 70 bc ec 90 b6 bc
       -0.07296096 -0.025825555 -0.014702082 -0.022285901
0000e0 bf 70 96 bd d0 ec 7f bd ba 97 19 bc 3e 69 0d be
       -0.07345723 -0.0624817 -0.009374553 -0.13809678
0000f0 ca 8f 0e be 0c 0f 3d be 7c 7d 80 3c d7 ff 1b bd
       -0.13922039 -0.18462771 0.015684836 -0.038085785

fc3.weight f4 [64, 64]
000000 a3 ab a2 bc 80 2d 2b be 22 aa 0f 3f 5d bc 14 be
       -0.019857233 -0.16716576 0.5611898 -0.1452498
000010 e5 34 3c be 8a c8 5a 3e 69 06 83 3e 43 b2 b0 3d
       -0.18379553 0.21365562 0.25590828 0.08627751
000020 8b 3b b5 be d1 fa 17 be a1 d3 f8 bd f1 80 09 bf
       -0.3539699 -0.14841773 -0.1214974 -0.53712374
000030 07 10 7a bd 63 44 d8 bd 1b 93 bf bd 29 d3 51 3d
       -0.06105044 -0.10559919 -0.0935423 0.05122677
000040 3b 40 32 bd 93 0b fb bd 29 ad 57 be 1a ad 2e 3d
       -0.043518286 -0.12258067 -0.21062149 0.04264555
000050 1e fa 11 be 37 e4 09 3e 06 23 54 bd 9a 64 08 3e
       -0.14255568 0.13465963 -0.051791213 0.13319626
000060 d4 68 a0 3d f6 b7 d5 bc 7a 8e 46 bd 35 63 27 3e
       0.078324944 -0.026088696 -0.04847572 0.16346438
000070 94 24 9e 3d 7c 95 0e be 69 13 4b bd a6 d7 c1 be
       0.077218205 -0.13924211 -0.049579058 -0.3785984
000080 62 1a 99 3c 9e a5 bc bd 86 3d 48 be 05 3b 57 3e
       0.018689338 -0.092112765 -0.1955472 0.21018608
000090 3c d4 60 3e 85 11 85 bd 13 0f 9b be c0 25 e0 be
       0.21955961 -0.06497482 -0.30284938 -0.437788
0000a0 00 50 79 39 48 25 5f bd 95 9b b7 bc 50 43 e8 bd
       0.00023776293 -0.054478914 -0.022413054 -0.11340964
0000b0 06 0f 2c 3e 4c eb ec 3d f3 2e bf 3d 7d 7e 64 3e
       0.16802606 0.11568317 0.09335127 0.22313876
0000c0 84 a6 d2 3d de 3b ad bd e2 74 c4 3b 49 2f 96 bd
       0.102856666 -0.084586844 0.005995379 -0.07333238
0000d0 63 b8 17 3e e4 1e 98 3c a1 1b 69 3d bb f7 85 bc
       0.14816432 0.018569417 0.056911115 -0.016353479
0000e0 8d de 6c 3d a6 32 dd bd ee 1e 8a be b7 7f 3d be
       0.05782943 -0.10800676 -0.26976722 -0.1850575
0000f0 e2 ce 8c be 6b 6b d4 3d c8 4d 3b bd c5 15 36 bd
       -0.2750159 0.10372051 -0.045728475 -0.044454355
000100 2a 16 d9 3d 7c 84 12 bd 70 25 12 3f b4 ab 65 3d
       0.105999306 -0.03577088 0.57088375 0.056071952
000110 f3 36 1d be c8 c4 4f be f0 b6 12 3e 29 14 1f 3e
       -0.15352993 -0.2028991 0.14327598 0.15535034
000120 34 22 6a bd 18 93 e8 3d 4d f0 84 bd 2d db a4 bc
       -0.057161525 0.11356181 -0.06491146 -0.020124042
000130 88 5a fd bd f9 fe f2 3e 3b 56 8e be 02 28 b7 3d
       -0.12370783 0.47460154 -0.27800164 0.08943178
000140 bf f3 e4 bc 3b 9d 0b be ce 51 ec 3c 82 e5 37 be
       -0.027948258 -0.13634197 0.028847601 -0.17958644
000150 09 11 c4 3d e8 83 84 3d 5c be 81 be d5 4f a1 bd
       0.09573562 0.064704716 -0.25340545 -0.07876555
000160 50 5f 37 be 4d e1 4c 3e 13 92 84 3e 24 47 f8 bd
       -0.17907453 0.2000782 0.25892696 -0.12122944
000170 85 0d 6c be 27 34 cf 3c b4 42 98 bd a8 e3 de bd
       -0.23052032 0.025293423 -0.074345976 -0.10883266
000180 ac 1b 70 3d 1d 97 53 bd 59 cd 1b 3e 68 c6 e5 3d
       0.05862014 -0.051657785 0.15215053 0.112194836
000190 f5 f0 2f 3e 5b 22 25 3e 7d 2c 25 3d e6 b6 15 bd
       0.17181762 0.16126387 0.04032563 -0.03655138
0001a0 e7 9e ec bc bf c7 b5 bc 6d df 23 3e 12 61 13 3d
       -0.028884364 -0.022189973 0.16003199 0.035981245
0001b0 47 b4 07 3c 15 9b bc 3c 5a 3a b8 3d a4 e2 54 3e
       0.008282728 0.023023168 0.08995505 0.20789582
0001c0 da 9d b3 3c be 9a 25 3c 29 7b d1 bd e1 57 06 be
       0.021925855 0.010107694 -0.10228569 -0.1311946
0001d0 b4 b6 50 3e 36 77 b2 bc a6 f1 f5 bd fa 17 ae bd
       0.20382196 -0.02178536 -0.120089814 -0.08500667
0001e0 ae a6 95 3d d2 62 0a 3c 35 14 63 3d 9e b2 93 bd
       0.07307182 0.008446412 0.055439193 -0.07211803
0001f0 9a b0 47 be 17 08 13 3d 00 12 b5 bc be 96 e9 3c
       -0.19500962 0.035896387 -0.02210331 0.028514262
000200 9a fa a1 bd ab ff c2 3d 39 ab 27 be c2 a1 8c bd
       -0.079091266 0.09521421 -0.1637391 -0.0686679
000210 e8 f7 fb 3c d7 cc 1c be 46 67 3e 3c 76 06 81 be
       0.03075786 -0.15312515 0.011621302 -0.25200242
000220 6d 2a ab bc 83 af 82 3e 5f 73 19 be fb 52 b5 3d
       -0.020894254 0.2552453 -0.14985417 0.08853718
000230 04 30 d4 bd bd 0b 59 3d fb 24 66 bd 33 22 b7 3d
       -0.10360721 0.05298971 -0.05618761 0.0894207
000240 b8 16 e4 3d 34 4d 2a 3d bb 4e b7 bd 0a 6d 6e bd
       0.11137146 0.041577533 -0.089505635 -0.058209457
000250 c9 3b c4 bd 10 05 79 be f1 02 48 bd 72 eb 22 3d
       -0.095817156 -0.24318337 -0.04883093 0.03977532
000260 63 87 ae 3b d0 bb d5 3d 07 a2 b3 bd e4 3c 4e bd
       0.005326198 0.10436213 -0.08771139 -0.05035104
000270 0b db 81 3e 97 a5 86 3d 98 d5 fa bd b5 d8 0f be
       0.2536243 0.065745525 -0.12247771 -0.14047511
000280 a0 56 23 3e cf 14 ca bd 14 e5 58 bc e3 16 c8 bd
       0.15951014 -0.0986725 -0.01323821 -0.0976999
000290 03 3c 0e be 8f 20 cd 3a 78 7d 21 3e 7f af 9e 3e
       -0.1389008 0.0015649962 0.15770519 0.30993268
0002a0 b8 a8 9d bd e6 ed 0a 3d 25 a4 99 3c 40 9b 1f 3e
       -0.07698196 0.033918284 0.018755028 0.15586567
0002b0 31 81 b8 be 75 33 1e bf 57 2b 85 3e b6 39 ac bd
       -0.36036065 -0.6179727 0.26009628 -0.08409445
0002c0 11 25 9b 3d 78 b9 7d be 89 bc b9 3d e4 1c 84 be
       0.07575429 -0.24777782 0.09069163 -0.25803292
0002d0 36 a0 3e bd 08 ea 35 bd 03 05 b7 bd c6 7f 1c 3e
       -0.046539508 -0.044412643 -0.08936503 0.15283117
0002e0 b6 4d b6 bc fe 70 81 be fe 75 c3 3d c4 44 8a 3d
       -0.022253852 -0.2528152 0.095439896 0.06751397
0002f0 37 c8 fd 3c 49 9e 40 be f6 8e 2e be 33 8f 3a 3e
       0.030979259 -0.18810381 -0.17046723 0.18218689
000300 b3 ad 0c be a3 3c ef 3d 40 dd 0c 3f 9a 44 89 bd
       -0.13738136 0.116814874 0.550251 -0.06702538
000310 5a 0f 14 3e 54 a2 b8 bd 28 0a 5d be b7 41 6d bd
       0.14458981 -0.09015337 -0.21585906 -0.057924
000320 38 18 25 3e 5b 38 b4 bb fb 6e fa bd fa 19 06 be
       0.1612252 -0.005499882 -0.12228199 -0.13095847
000330 10 18 52 bd c7 cd ac be 91 51 c8 3d ea 89 20 3d
       -0.05129248 -0.33750746 0.097811826 0.039194025
000340 18 39 6e 3d f9 aa 52 bd 16 0a 01 be e3 02 99 be
       0.058159918 -0.051432583 -0.12601504 -0.29885015
000350 03 ec 61 3c 4a 17 e9 3d 43 a2 3b be d0 d9 4a 3d
       0.01378918 0.11381395 -0.18323617 0.04952413
000360 05 d9 54 3d aa 66 2e 3d e8 ba 89 bd c6 99 b9 be
       0.05196478 0.042578377 -0.06725103 -0.36250132
000370 b4 80 07 be 4b c0 74 be 2d d0 2c be 73 9d 58 bd
       -0.1323269 -0.23901479 -0.16876288 -0.05288453
000380 9e de 1d be c0 b2 69 3c ec 26 6f be 58 f2 8e bd
       -0.15416953 0.014263809 -0.23354691 -0.06979817
000390 59 fc 68 3e 18 e0 b0 be aa 11 75 be 0d 83 3e be
       0.22752513 -0.3454597 -0.2393252 -0.1860468
0003a0 2a b6 8f bd 02 7a 30 be eb f9 a9 bd 44 79 b2 bc
       -0.07017167 -0.17234042 -0.08299621 -0.02178634
0003b0 8b 6b 03 3e e1 05 ce bd fe a5 0d bd 80 2c 59 3e
       0.12833993 -0.10059715 -0.03458213 0.21208382
0003c0 e0 96 99 3d 3b 2f d3 bb 27 7d 9d bd 37 2b 41 be
       0.0749948 -0.0064448393 -0.076898865 -0.18864141
0003d0 7e 22 7d 3d 3c a3 a4 bd fa a3 01 3e a8 32 95 be
       0.061800472 -0.08038947 0.12660208 -0.2914021
0003e0 b3 b3 e8 3d 40 39 ae bd ae d2 23 bd 62 39 44 3d
       0.113624 -0.08507013 -0.03999584 0.047906287
0003f0 15 28 45 3e 38 81 9e bd 31 35 b1 bd f7 fa 48 bd
       0.19253571 -0.0773949 -0.086527236 -0.049067464

fc3.bias f4 [64]
000000 17 d8 a0 3d fb c3 92 3d d9 07 17 3e 4a f0 e9 bd
       0.07853716 0.071662866 0.14749087 -0.114227846
000010 a2 9c a0 3e b7 72 20 3c fa 58 a1 bd dc b3 e6 bd
       0.313695 0.009792975 -0.07878299 -0.11264774
000020 bc 76 ff bd 91 1c c9 3d 91 bb c1 3e 37 7b c9 3e
       -0.12473819 0.09819902 0.37838414 0.39351818
000030 81 b6 61 3d 95 f7 5b 3d d5 90 cd 3e 0b 1b ad bd
       0.05510569 0.05370291 0.4014956 -0.08452424
000040 d4 53 b7 3e f4 6b c0 3e 8c 1a b5 3d 52 cd 8d bd
       0.35806143 0.37582362 0.08842954 -0.06923927
000050 33 95 82 3d 26 08 b7 3e 11 2b ae 3d 6d 6c d3 3d
       0.06376114 0.35748404 0.08504308 0.10323415
000060 32 07 c1 3c 37 32 a5 bd 85 27 31 bc 03 48 1e 3e
       0.023563001 -0.08066218 -0.010812645 0.15457158
000070 71 10 e2 bd a4 dd 3d bd db 01 ab 3e 7b c6 13 3d
       -0.11038292 -0.04635395 0.33399853 0.036077958
000080 e2 10 b1 bd f4 db b8 3d 60 da c8 3d fa e6 06 be
       -0.08645798 0.09026328 0.09807277 -0.13174048
000090 1f 6d 9f 3e 3c 25 3a bd 65 12 b6 3e 97 82 a1 3e
       0.3113794 -0.045445666 0.3556091 0.31544945
0000a0 5a e8 97 bd 13 f2 ef bd 9b e2 2a 3d 0e 11 24 3e
       -0.074173644 -0.11716094 0.041720014 0.16022131
0000b0 d8 1e a3 3d 61 68 3b 3e da c8 ab 3e e5 fe 6d 3e
       0.07964867 0.18301536 0.33551675 0.23241766
0000c0 43 c7 bc bd b5 a0 e6 3c f8 4a 45 bc 75 79 18 3d
       -0.09217694 0.028152803 -0.0120418 0.037225205
0000d0 dc a5 07 be 7c 64 74 be 6a 85 ee 3d 68 95 b5 3b
       -0.13246864 -0.23866457 0.116465405 0.0055414923
0000e0 8c 0f 8b be 80 8d da 3c a0 6b 3a be 33 15 9c 3e
       -0.271603 0.0266788 -0.18205118 0.30484924
0000f0 32 63 d3 3c 20 ef ec 3c e2 a6 7b bd 5a 49 0b 3e
       0.025804136 0.028922617 -0.06143845 0.136022

fc4.weight f4 [4, 64]
000000 c5 48 22 3e 46 73 0b 3e d6 1a 9d 3d 03 a1 07 be
       0.15848072 0.13618192 0.07671134 -0.13245015
000010 3b b7 48 3e 60 6f 46 3b 13 bf e9 3d 63 46 af 3d
       0.19601147 0.0030278787 0.11413398 0.08558347
000020 f1 cb bf bd cf ca 19 3e 8b 43 0b 3e ae 60 7b 3e
       -0.093650706 0.15018772 0.13599984 0.24548599
000030 c1 35 22 3e aa b9 81 bc 5f e7 1a 3e 04 47 7a be
       0.15840818 -0.015835602 0.15127324 -0.24441153
000040 21 10 45 3e af 5e 03 3e 34 f6 32 3d bc a2 d0 bd
       0.19244434 0.12829088 0.04369183 -0.10187289
000050 dd 7c a1 be 42 21 57 3e b5 28 0e 3e 92 c1 b2 3d
       -0.31540576 0.2100878 0.13882716 0.08728327
000060 61 7c f5 3d a3 d4 bd bd c6 52 a3 3e 1b 3f 1c 3e
       0.11986614 -0.09269073 0.3189909 0.15258448
000070 08 5a cc bd 48 07 33 3c ef 30 0f 3e 55 5e 2d be
       -0.099781096 0.010927029 0.1398351 -0.16930516
000080 86 65 b1 3e ca d3 84 be d7 02 46 3d bb c9 84 3c
       0.3464777 -0.25942832 0.048342552 0.016209474
000090 62 bd 7b 3e ef 01 60 be 9f c1 36 3e f1 42 53 3e
       0.24583963 -0.21875738 0.17847298 0.20631005
0000a0 5f 39 e6 3b 60 80 ed bb 88 75 e2 be 91 a1 77 3e
       0.007025882 -0.0072479695 -0.44230294 0.24182726
0000b0 0a 13 58 3e d2 f5 d0 3e 3f 62 e3 3d d7 fe 64 3e
       0.21101013 0.40812546 0.11102723 0.22362839
0000c0 79 09 d7 3b 17 8d 99 3e c4 10 1a be a4 af 1a be
       0.0065624085 0.29990456 -0.15045458 -0.15106064
0000d0 80 3a 81 bd a0 2f 70 bd b4 d7 35 3e 9e 65 07 3d
       -0.06309986 -0.05863917 0.17758065 0.033055894
0000e0 10 8d 57 be 30 65 09 bf 85 02 7c be a7 41 21 3e
       -0.21049905 -0.53670025 -0.24610336 0.157477
0000f0 45 f2 88 3e c4 a5 80 3e 72 58 76 bd d0 0a 1d 3d
       0.26747337 0.2512647 -0.06014294 0.03834039
000100 a5 18 8d 3e 2b dd ca 3d e0 12 b3 3c c0 82 08 3e
       0.27557865 0.09905466 0.021859586 0.13331127
000110 ea 2c 55 3e e9 15 ea 3d 85 ff 91 bc aa 2a 67 bf
       0.20817915 0.1142996 -0.017822037 -0.90299475
000120 ae 06 0c 3e 35 36 f5 3d 16 35 f6 3d a6 db db 3d
       0.13674423 0.1197323 0.12021844 0.10735254
000130 27 10 58 3e ed 1f 9f bd 48 03 58 3e 9f ed 15 3d
       0.21099912 -0.07769761 0.21095002 0.036603566
000140 8f 3d 5b 3e ff 2a 43 3e 06 de 34 3e c3 ef 2b 3e
       0.21410201 0.1905937 0.1766282 0.1679068
000150 19 7c 22 bd 87 9a b2 3d f2 a0 67 3e d1 74 4f 3d
       -0.03966913 0.0872088 0.2261999 0.050648514
000160 9f 17 22 3d d9 60 87 be 16 d0 c1 3e d9 ff 5a 3d
       0.039573308 -0.26441076 0.3785407 0.05346665
000170 82 ab 69 3d 04 d0 09 3e 52 73 1b 3e df 5b 14 3e
       0.05704833 0.13458258 0.1518071 0.14488171
000180 dc 2a ed 3e f7 eb 13 3e b4 eb c6 be 4f a9 3c 3d
       0.46321762 0.14445482 -0.38851702 0.046059903
000190 c5 6c 19 3e 20 c1 3f be e3 3d 19 3e 92 ce b5 3d
       0.14982899 -0.18726015 0.14965014 0.08877291
0001a0 b9 4f 78 3d b8 bf 26 bd 9a 94 e0 bd 68 d2 f5 3d
       0.060622904 -0.04071018 -0.109658435 0.120030224
0001b0 68 1d ce 3e b1 05 2d 3e 96 8b 6c 3d c2 b8 f5 3d
       0.4025681 0.16896702 0.057750307 0.119981304
0001c0 6e f3 05 3c 42 c6 d9 3e bf 8b 90 3d 93 92 53 3e
       0.008175714 0.4253407 0.070579045 0.20661382
0001d0 9b 93 f8 3c 0f 59 40 be b2 05 7d bc 18 22 03 be
       0.030343821 -0.18783973 -0.015443252 -0.12805974
0001e0 5f cb fd bd a7 54 57 bc 8b 4e ac be 5b e6 2d 3e
       -0.123923056 -0.013142741 -0.33653674 0.16982405
0001f0 5c f6 41 3e 8c ab 37 3e fb 51 8d 3d 7c 44 5f 3d
       0.18941635 0.17936534 0.06900402 0.05450867
000200 b5 a5 1a 3d 5f fb bb 3d b5 cb 75 3e 4f a5 6c be
       0.037755687 0.091788046 0.2400349 -0.23109935
000210 1e 9e 3c 3e a9 92 69 3e 5f 8b d7 3d 21 0d ef 3e
       0.18419692 0.22809853 0.1052463 0.46689704
000220 ed 3f 63 3e dc 7c e4 3d e5 a5 65 3e 9f 08 58 3e
       0.22192355 0.111566275 0.22426565 0.21097039
000230 46 36 be 3e b3 6d bc be 87 4b 61 3e 5f 16 35 be
       0.37150782 -0.36802444 0.22001468 -0.17684315
000240 a8 14 77 3e 0b 12 56 3e 9a ff 84 3e 6a 0e c6 3d
       0.24128973 0.2090532 0.2597626 0.09670718
000250 ec c2 83 3c 52 05 17 3e 7b 16 49 3e 6b 68 7f 3e
       0.016084157 0.14748123 0.19637482 0.24942176
000260 23 fa a1 be 79 67 98 be b5 8a 8d 3d 4d 24 8d bd
       -0.31636152 -0.29766443 0.06911222 -0.068916894
000270 09 eb 50 be bf 0c b9 3d 2d e6 19 3e df 89 00 be
       -0.20402159 0.09035634 0.15029211 -0.12552594
000280 d5 01 cf bd 96 45 80 3e 25 76 0b bf 28 39 e6 bd
       -0.10107771 0.2505309 -0.5447715 -0.112413704
000290 13 91 1b 3e 81 ef 21 3d 31 ec 39 3e 4f 12 23 3e
       0.1519206 0.03953505 0.18156506 0.15924953
0002a0 3b d4 fa bd 2e 98 b5 bd 99 dd 93 be 02 74 ef 3d
       -0.12247511 -0.088669166 -0.28880003 0.116920486
0002b0 30 73 a2 be cd fa 49 3e 8f 9d 6d 3e bd 93 83 3e
       -0.31728506 0.19724579 0.23204635 0.25698653
0002c0 7d 2c 0d bb 87 b2 b7 3e 82 72 2f bf c6 e3 14 3e
       -0.002154141 0.35878393 -0.685341 0.14540014
0002d0 fb 40 ab bd 76 69 fb bc ee 14 96 3e 56 24 49 be
       -0.083620034 -0.030689936 0.29312843 -0.19642767
0002e0 42 60 dd be 1e 07 0d 3d d6 26 24 be 5b b2 50 3d
       -0.432375 0.034430616 -0.1603044 0.050951343
0002f0 4d c1 88 3e 19 c8 8c 3e 9a f6 cf bd a0 1f 23 3d
       0.26709977 0.27496412 -0.101544574 0.03982508
000300 a1 88 20 be db d0 11 bd f0 1b a0 3d 96 fb 98 be
       -0.1567712 -0.03559957 0.07817829 -0.29879445
000310 a2 07 e5 3b 23 ba 30 3e 1f cb b3 3d e3 3e 67 bd
       0.0069894353 0.17258506 0.08778977 -0.056456458
000320 30 13 f6 bd f1 5b 5a 3e 0b 00 5e 3e 3b 04 4f 3e
       -0.120153785 0.21324135 0.21679704 0.20216458
000330 f1 52 8f be c9 6e 43 3e 9c 2f 4d 3e a2 38 f9 be
       -0.27992967 0.1908523 0.20037693 -0.4867602
000340 78 ec 31 3e eb e3 36 3e cb b9 8b 3e ae 41 40 be
       0.17375362 0.17860381 0.27290186 -0.18775055
000350 10 90 54 3e eb e8 27 3e 12 9f c0 bc 98 ed 0d 3d
       0.2075808 0.16397445 -0.02351335 0.034650415
000360 86 13 21 bf a2 67 ad bd ac 03 98 3e 64 3b 52 3e
       -0.62920415 -0.08467032 0.296903 0.20530468
000370 32 7c 70 3e 49 89 84 3e 59 d5 4b 3e 58 2b 74 3e
       0.23484877 0.2588599 0.19905604 0.2384466
000380 1f 25 31 3e e6 6b 1c 3e 91 e7 d3 be d1 04 69 3d
       0.17299317 0.15275535 -0.4138761 0.05688936
000390 fc e1 9d 3d b1 10 10 be e7 5d 6b 3e 82 94 4a 3e
       0.07709119 -0.14068867 0.2298504 0.19783214
0003a0 f4 71 61 3e 30 ca 4f 3d 6d 25 52 be 79 a3 38 3e
       0.22016126 0.05072993 -0.2052209 0.1803111
0003b0 be 1b 3c be 1d 97 87 3e 69 37 39 3e f6 e9 89 3e
       -0.18369958 0.26482478 0.18087544 0.2693631
0003c0 10 b7 5e bc ff 05 59 bd 8f a8 12 3e 01 0d f1 bc
       -0.01359345 -0.052984234 0.14322113 -0.029425146
0003d0 a8 d6 f9 bc ce 13 df be 05 f1 cd 3d a9 13 08 be
       -0.030497864 -0.43569797 0.100557365 -0.1328875
0003e0 87 14 c6 be a5 4d 9a 3d dc 1c 13 3e d0 bd ce 3d
       -0.38687536 0.07534341 0.14366478 0.100947976
0003f0 8e 00 8e 3e bf 14 9f 3d 9e 08 71 3e 9c 6b bf 3d
       0.27734798 0.07767629 0.23538443 0.09346697

fc4.bias f4 [4]
000000 4c 0e 42 3e fb 94 96 3e ee 45 3b 3d 2d 09 ab 3d
       0.18950766 0.29410538 0.045720987 0.083513595
